exported_models/conv_model.tflite (tflite, 273632 bytes, 14 tensors)

lstm_skip/conv1d/BiasAdd/ReadVariableOp f4 [64]
0	0x3ce96223	0.028489178
1	0x3cdf5a9d	0.027264887
2	0x3ca2acfc	0.019857876
3	0xbcd37451	-0.0258123
4	0x3bd3d3f2	0.006464475
5	0xbcaa3e96	-0.020781796
6	0xbd0f3b86	-0.034968875
7	0x3cbdf1a3	0.02318651
8	0x3ca16581	0.019701721
9	0x3cec91cd	0.028878117
10	0x3c9cf83e	0.01916134
11	0xbae5fcaa	-0.0017546613
12	0x3ca4b76a	0.02010699
13	0x3cfeb04d	0.031089926
14	0xbad677fe	-0.0016362665
15	0xbbfc259b	-0.0076949126
16	0x3d9a0575	0.07520572
17	0x3d6f15a9	0.058370266
18	0x3cf46250	0.029832035
19	0x3d1721ed	0.03689759
20	0x3c63489d	0.013872293
21	0x3d763c22	0.06011594
22	0x3ca3cbed	0.0199947
23	0xbcbabf7c	-0.022796385
24	0xb9f8c6ce	-0.00047450367
25	0xbbf81983	-0.0075714006
26	0x3d97314d	0.0738245
27	0x3d9071c6	0.070529506
28	0x3ddf169e	0.10892986
29	0x3d3ff04a	0.046860017
30	0xbc36a1e2	-0.011146994
31	0xbabc679f	-0.0014374143
32	0x3c811556	0.015757244
33	0x3d52e5a4	0.051488534
34	0xbd81ce1f	-0.063381426
35	0xbb3a4be6	-0.0028426587
36	0x3d923bee	0.07140337
37	0xbcbfc498	-0.023409173
38	0x3d28b357	0.041186657
39	0xbdbe31b3	-0.09286823
40	0xbcac52eb	-0.021035632
41	0x3c978fa3	0.018501109
42	0x3b1b29ca	0.0023676031
43	0xbd6d5e7d	-0.05795144
44	0x3c95e578	0.018297896
45	0x3dcb46f0	0.0992564
46	0x3ca9d88d	0.020733142
47	0xbb4aacc9	-0.0030925742
48	0xbb276705	-0.0025543582
49	0x3d2aaf07	0.041670825
50	0x3d588a78	0.05286643
51	0x3c4e9a6a	0.012610057
52	0x3d14de52	0.036344834
53	0x3cacc02d	0.02108773
54	0x3bcdeb00	0.0062841177
55	0x3d023571	0.031789247
56	0xbd85dd14	-0.06536308
57	0xbca1079d	-0.01965695
58	0x3c3767f7	0.011194221
59	0x3bc8dce3	0.0061298474
60	0x3cde1ff1	0.02711484
61	0xbd0ed192	-0.03486783
62	0x3be29353	0.006914535
63	0x3dbdb128	0.092623055

lstm_skip/conv1d_1/BiasAdd/ReadVariableOp f4 [32]
0	0x3d60960f	0.054830607
1	0x3d347309	0.04405502
2	0xbc3df6d7	-0.011594496
3	0x3d5bd6f0	0.053671777
4	0x3d4304e1	0.047612075
5	0x3c9a582e	0.018840875
6	0x3d165f72	0.036712117
7	0x3d6883f0	0.05676645
8	0x3d323361	0.04350603
9	0xbd147c5c	-0.03625141
10	0x3d5dc809	0.054145847
11	0x3d4362ef	0.047701772
12	0xbcb3cd20	-0.021948397
13	0xbd13c30c	-0.036074683
14	0xba93c47b	-0.0011273766
15	0x3c968d2b	0.018377861
16	0x3ba6cbc0	0.005090207
17	0xbbbabbeb	-0.005698671
18	0x3cbfc4ef	0.023409335
19	0x3cdfd285	0.027322063
20	0x3b82ee3a	0.003995684
21	0x3d13f482	0.036121853
22	0x3ccda911	0.025105031
23	0x3ca54e45	0.020178923
24	0x3d442b80	0.047893047
25	0xb9c4c232	-0.0003752872
26	0xbd01204c	-0.03152494
27	0x3c94e1ce	0.018174078
28	0xbd0b40b0	-0.033997238
29	0x3d034724	0.032050267
30	0x3cd9d85a	0.026592422
31	0x3d0fde23	0.035123955

lstm_skip/conv1d/Conv1D f4 [64, 1, 3, 8]
0	0x3d9979b5	0.07493917
1	0xbdc994f5	-0.098428644
2	0xbc6fb799	-0.014631175
3	0x3e035e9f	0.12829064
4	0xbd770dbc	-0.060315832
5	0x3c2f5c98	0.010703228
6	0x3e5c6db1	0.21526219
7	0x3ddab98b	0.10679921
8	0x3d715077	0.058914628
9	0x3e08c1bc	0.13355154
10	0xbe45435d	-0.19263978
11	0xbddaa5de	-0.10676168
12	0x3d37579f	0.044761296
13	0x3d6391dd	0.055559028
14	0x3dd74515	0.10511223
15	0xbe14b06f	-0.14520429
16	0xbdb8ddb6	-0.09026663
17	0xbe108020	-0.14111376
18	0xbe1b7c3d	-0.15184112
19	0xbe0f53bc	-0.13996786
20	0x3e1819e5	0.14853628
21	0x3d9e2096	0.07721059
22	0x3e6521e7	0.22376214
23	0xbe5306aa	-0.20608011
24	0xbe08cf94	-0.13360435
25	0x3dbf291f	0.09334015
26	0xbd837628	-0.06419021
27	0xbdbfb1ac	-0.0936006
28	0x3b8b15f2	0.0042445594
29	0xbd8dd58b	-0.06925496
30	0x3d4dcc18	0.050243467
31	0xbe174d01	-0.14775468
32	0x3982f9d1	0.0002498166
33	0x3d0b76d4	0.03404887
34	0x3dc43b21	0.095815904
35	0xbde848eb	-0.11342033
36	0x3d854beb	0.06508621
37	0xbdd59ff1	-0.10430897
38	0x3e226a80	0.15860939
39	0xbd244a17	-0.04010972
40	0xbdd25291	-0.102696545
41	0x3df310a6	0.1186841
42	0x3dc3e7d0	0.09565699
43	0xbc07d86e	-0.008291347
44	0xbdde2d52	-0.10848488
45	0xbe34dc5c	-0.17662185
46	0x3e521fe0	0.20519972
47	0x3e42cac9	0.19022669
48	0x3dd77093	0.10519519
49	0xbe1b066d	-0.1513917
50	0xbddf6ffe	-0.10910033
51	0x3e535524	0.20637947
52	0xbc52ca9b	-0.012865688
53	0x3e2eaef5	0.17058928
54	0xbceb4639	-0.028720008
55	0xbe5fff13	-0.21874647
56	0xbdcc14db	-0.09964915
57	0xbd8c4343	-0.06848767
58	0xbc923372	-0.017846797
59	0x3e333ba5	0.17503221
60	0xbdbacaef	-0.09120738
61	0xbdab5325	-0.08365468
62	0x3e0a4c00	0.13505554
63	0xbd7b2b04	-0.06132032
64	0x3c97480d	0.018466974
65	0x3d824ded	0.063625194
66	0x3e1fc516	0.15602526
67	0x3e3ddc79	0.18541135
68	0x3db4e2af	0.08832299
69	0xbe1a5c17	-0.15074192
70	0x3e596c08	0.21232617
71	0xbde87240	-0.113499165
72	0x3d949f77	0.07256978
73	0xbd87d0f3	-0.06631651
74	0xbdc83f8d	-0.09777746
75	0x3d3fd82f	0.046837028
76	0x3e27567d	0.16341586
77	0xbd866853	-0.06562867
78	0xbdc35d42	-0.09539272
79	0x3d0a387f	0.033745285
80	0x3d636cf9	0.055523846
81	0xbcd4bdd4	-0.025969423
82	0xbd404dbc	-0.046949133
83	0x3d7e86a5	0.062140126
84	0x3d09d865	0.033653636
85	0x3e0d14ea	0.1377751
86	0x3dbfb9c5	0.093616046
87	0xbde6d575	-0.112711824
88	0xbd7c865d	-0.061651576
89	0x3e5fab5c	0.21842712
90	0xbe06d200	-0.13166046
91	0x3e1d06ff	0.153347
92	0x3cb7895f	0.02240437
93	0xbe00c218	-0.12574041
94	0x3d812648	0.0630613
95	0x3db27735	0.08714143
96	0x3e297c72	0.16551378
97	0xbe10296b	-0.140783
98	0x3cc963e3	0.024583763
99	0xbcb86ad1	-0.022511872
100	0x3d4dfedd	0.050291885
101	0x3d300a6a	0.04297868
102	0x3e281948	0.16415894
103	0xbdcadedd	-0.09905789
104	0xbe03ce36	-0.12871632
105	0x3dd5f5a5	0.104472436
106	0xbdd13949	-0.102160044
107	0xbdf13d43	-0.11779263
108	0xbd1fe637	-0.03903791
109	0xbe04742d	-0.12934943
110	0x3d9dc590	0.07703698
111	0x3df7827d	0.120854355
112	0xbdbe8477	-0.093026094
113	0xbe44d35a	-0.19221249
114	0x3d672069	0.056427393
115	0x3e47b334	0.19501954
116	0xbd5a4d22	-0.053296216
117	0xbdc79f9e	-0.097472414
118	0xbd488758	-0.0489572
119	0xbd835d05	-0.064142264
120	0xbdb58c05	-0.08864597
121	0xbd3db5d5	-0.046315987
122	0x3e316cd8	0.17326677
123	0x3e4df47e	0.20112798
124	0x3e0ed0b2	0.13946798
125	0xbd8de726	-0.06928854
126	0xbda46e5a	-0.080288604
127	0xbe103ab5	-0.14084895
128	0x3d0db922	0.034600385
129	0x3d9d8d41	0.07692958
130	0x3cac3ae8	0.021024182
131	0xbcbf12ad	-0.023324335
132	0x3d3f7608	0.046743423
133	0x3e03bb98	0.1286453
134	0x3e4812a3	0.1953836
135	0xbe02bbdb	-0.12766974
136	0x3e2665c7	0.16249762
137	0x3e5f3b35	0.2179993
138	0xbe00e084	-0.12585646
139	0xbc8488f4	-0.016178586
140	0x3d934bd6	0.07192199
141	0xbe31675c	-0.17324585
142	0xbbbe77c5	-0.0058126175
143	0xbdc443db	-0.09583255
144	0x3ccddbf8	0.025129303
145	0xbddef44c	-0.1088644
146	0x3e4a2cda	0.19743672
147	0x3e083bc0	0.13304043
148	0xbd10e644	-0.03537585
149	0x3e4b4682	0.19851115
150	0x3cc55aab	0.024091085
151	0x3d551e75	0.052031
152	0xbdffd784	-0.12492278
153	0x3c3a4d52	0.011370974
154	0x3c5937cf	0.013257935
155	0x3e264469	0.16237034
156	0xbbd0d686	-0.0063732294
157	0x3df33bf9	0.11876673
158	0x3d4e68b7	0.050392833
159	0xbd83715c	-0.06418106
160	0xbdea7132	-0.114473715
161	0x3d9ff26f	0.078099124
162	0x3d785382	0.060626514
163	0x3e28988f	0.16464446
164	0xbe44f86f	-0.19235395
165	0xbc37eebc	-0.011226352
166	0x3ccb1a6d	0.024792874
167	0x3e2a09cb	0.16605298
168	0x3df0e5d3	0.117625855
169	0x3d09c496	0.033634745
170	0xbddbde2c	-0.10735735
171	0x3e16777d	0.14694019
172	0xbe002bf2	-0.12516764
173	0x3c37a7a9	0.011209407
174	0x3c4a8903	0.012361768
175	0xbdde5097	-0.10855215
176	0xbde7e13c	-0.11322257
177	0xbe07c6ba	-0.13259402
178	0x3b85b610	0.0040805414
179	0x3e103825	0.14083917
180	0xbd8ce707	-0.068800025
181	0x3dded586	0.1088057
182	0x3e1e33a3	0.15449385
183	0xbc6dbe42	-0.014510693
184	0xbd20ec54	-0.03928788
185	0xbdb50e2b	-0.08840593
186	0x3dfcd716	0.12345712
187	0x3e35d0f0	0.17755485
188	0xbd4e83c7	-0.05041864
189	0x3b25377c	0.0025210073
190	0x3e04563b	0.1292352
191	0xbe636743	-0.2220736
192	0xbde3ecb1	-0.1112913
193	0xbd9716e9	-0.07377417
194	0x3da1d2c4	0.079015285
195	0xbd21a4c6	-0.03946378
196	0x3e2cd0a5	0.16876467
197	0xbcfc0810	-0.030765563
198	0xbe347485	-0.17622574
199	0x3e131853	0.14364748
200	0xbd06137a	-0.032733418
201	0x3d8cbc52	0.06871857
202	0xbd54265d	-0.0517944
203	0xbd49a9b6	-0.049234115
204	0x3d0f34be	0.03496241
205	0x3e710758	0.23537958
206	0xbe1424d8	-0.1446718
207	0xbd5a6835	-0.053322036
208	0xbd8d4fc6	-0.06899981
209	0x3ca0f4b2	0.01964793
210	0xbd64e539	-0.055882666
211	0x3e284ddc	0.16435951
212	0xbe08efae	-0.1337268
213	0x3e2cad45	0.16862972
214	0x3dcfd52c	0.10148081
215	0xbc25327e	-0.010082839
216	0xbb0641e6	-0.0020486056
217	0xbd2faeff	-0.0428915
218	0xbdd934fe	-0.106058106
219	0xbd8e1065	-0.06936721
220	0xbde442c4	-0.11145547
221	0xbe55c479	-0.2087573
222	0x3e4aa64c	0.1979
223	0xbd717543	-0.05894972
224	0x3dabb5ef	0.083843105
225	0xbcd65ed6	-0.026168268
226	0xbcc20828	-0.02368553
227	0xbe2facb1	-0.1715572
228	0xbe23a852	-0.15982178
229	0x3d8c5bd1	0.0685345
230	0x3e527c09	0.20555128
231	0xbd932650	-0.07185042
232	0xbcfa9efb	-0.030593386
233	0x3e285348	0.1643802
234	0xbc92e08d	-0.01792934
235	0xbd23c6ba	-0.039984442
236	0xbe302f1c	-0.17205471
237	0x3d6bd31b	0.057574373
238	0x3d972b75	0.07381336
239	0xbe106cb2	-0.14103964
240	0xbcf39939	-0.029736148
241	0x3e4f95f2	0.20272043
242	0x3e58db13	0.2117732
243	0xbcd76b8a	-0.026296396
244	0x3d99d22c	0.0751079
245	0x3e15fb0f	0.14646553
246	0xbd0f1de1	-0.034940604
247	0x3dd958ac	0.10612616
248	0xbd60d1fb	-0.054887753
249	0x3e2f0610	0.17092156
250	0x3d606aef	0.05478948
251	0x3d149e55	0.03628381
252	0x3e54e41d	0.20790143
253	0xbd97a21a	-0.07403965
254	0xbc6f51af	-0.014606877
255	0xbbe6f4be	-0.0070482185

lstm_skip/conv1d_1/Conv1D f4 [32, 1, 2, 64]
0	0xbe0c551c	-0.13704342
1	0xbe036d57	-0.12834679
2	0xbc9850cd	-0.018593216
3	0xbda6bd09	-0.08141524
4	0x3e60407e	0.21899602
5	0xbd96041a	-0.07325001
6	0xbe230566	-0.15920028
7	0x3e180df4	0.14849073
8	0x3e1cac25	0.15300043
9	0x3ce4957f	0.027903317
10	0x3ab7d094	0.0014023953
11	0xbd921fae	-0.07134949
12	0x3d45d4c6	0.04829862
13	0x3e1a267a	0.1505374
14	0xbd3c90bc	-0.046036467
15	0xbd9601c3	-0.07324555
16	0x3e157af9	0.14597692
17	0x3dc8b4d0	0.09800112
18	0xbd30c882	-0.04315997
19	0x3dd5eeb5	0.104459204
20	0x3c856e5b	0.016287973
21	0x3e870b97	0.2637603
22	0x3e1b938d	0.15193005
23	0xbe3c2fb4	-0.18377572
24	0x3dde0de4	0.10842493
25	0x3e2d0bd6	0.16899046
26	0xbdb7e67c	-0.08979508
27	0x3dbec2b9	0.09314484
28	0x3c890af3	0.016728854
29	0xbd537770	-0.051627576
30	0x3dde8dab	0.10866865
31	0x3c39643c	0.011315402
32	0x3e10b81f	0.14132737
33	0xbcff100a	-0.031135578
34	0xbdfd66af	-0.12373101
35	0xbcc5801c	-0.024108939
36	0xbdda14f2	-0.10648526
37	0xbdd6a921	-0.104814775
38	0x3de85016	0.113434
39	0x3e4c18c9	0.1993133
40	0xbc96302e	-0.01833352
41	0x3deb5fcf	0.114928834
42	0x3c5f1dac	0.013617914
43	0xbddae910	-0.106889844
44	0x3cb83e08	0.022490516
45	0x3de7dd2e	0.113214836
46	0xbcfe6df2	-0.031058285
47	0x3e1c0645	0.15236767
48	0x3b0943ec	0.0020945026
49	0x3d79b2fe	0.060961716
50	0xbd86d69c	-0.06583902
51	0x3deb6873	0.114945315
52	0x3e27e159	0.16394557
53	0xbe4d21be	-0.20032403
54	0x3e0b87f5	0.13626082
55	0x3cfe87b4	0.031070568
56	0xbe1ab423	-0.15107779
57	0xbe3ec057	-0.1862806
58	0x3d43eff4	0.04783626
59	0xbde06d05	-0.10958294
60	0x3d66ff2e	0.056395702
61	0xbe45dbd8	-0.19322145
62	0x3e1f1a83	0.15537457
63	0x3e4698c4	0.19394213
64	0xbd8fbacc	-0.070180506
65	0xbd5e1a8c	-0.054224536
66	0x3e17cee6	0.14825019
67	0x3e5d4ffc	0.21612543
68	0x3df1d200	0.118076324
69	0x3dcb216b	0.09918483
70	0x3e2db886	0.16964921
71	0xbcc60e38	-0.024176702
72	0x3e092b18	0.13395345
73	0xbd99b9eb	-0.07506164
74	0xbd934599	-0.07191009
75	0xbcb8adbb	-0.022543779
76	0x3c3b63f3	0.011437404
77	0x3e2493d2	0.16072014
78	0x3e534a82	0.20633891
79	0x3e125a18	0.1429218
80	0xbdee5326	-0.11636953
81	0xbdc0815a	-0.09399672
82	0xbda5c6d4	-0.08094564
83	0x3db047ba	0.08607431
84	0x3d8121a4	0.063052446
85	0x3e94f14a	0.2909034
86	0x3dee3033	0.11630287
87	0xbe1d0e22	-0.15337422
88	0xbde615dc	-0.11234638
89	0x3d5248c7	0.051338937
90	0x3d8361b7	0.06415122
91	0x3bbff710	0.0058583096
92	0x3e4d26e7	0.20034371
93	0x3dd3bc39	0.10338635
94	0x3d85737e	0.06516169
95	0xbd11b807	-0.035575893
96	0x3d6f06c6	0.05835607
97	0x3cc11823	0.02357108
98	0x3cc70e7e	0.024298903
99	0x3e5242cb	0.20533292
100	0xbe10373c	-0.1408357
101	0x3d4b59f7	0.049646344
102	0x3be467c0	0.006970376
103	0x3c86be96	0.0164483
104	0xbe2e9751	-0.1704991
105	0x3dd84165	0.10559348
106	0xbe3600ec	-0.17773789
107	0x3d5a3625	0.053274292
108	0xbdb52656	-0.088452026
109	0xbe2570ca	-0.16156307
110	0x3e5b66ed	0.21425982
111	0x3d418319	0.047244165
112	0x3ded572d	0.11588893
113	0xbe13895d	-0.14407869
114	0xbe0aaaaf	-0.13541673
115	0x3e2ac888	0.16678059
116	0x3d2b1d43	0.041775953
117	0xbe352c53	-0.1769269
118	0x3e59516e	0.21222469
119	0x3cea2bc7	0.028585328
120	0x3c18f5a0	0.009335905
121	0x3d88ed4c	0.06685886
122	0x3d171b95	0.03689154
123	0x3db41304	0.087926894
124	0x3e292fed	0.16522188
125	0xbe246116	-0.1605266
126	0x3c3f2e61	0.011668772
127	0x3de74e72	0.11294259
128	0x3ddeed0d	0.108850576
129	0x3e5f0040	0.21777439
130	0x3e494da7	0.19658528
131	0xbd980fc1	-0.0742488
132	0xbd8d578e	-0.06901465
133	0xbd93b8c9	-0.07212979
134	0xbdbe6013	-0.092956685
135	0xbd83cce4	-0.06435564
136	0xbde5858d	-0.112071134
137	0x3e5b4f78	0.21417034
138	0x3dc43b09	0.095815726
139	0xbe051cd6	-0.12999281
140	0x3e03bc78	0.12864864
141	0xbdb1e5a6	-0.0868638
142	0xbdeb22e7	-0.114812665
143	0x3d589b1e	0.052882306
144	0xbc1ff568	-0.009763099
145	0xbacbe7fd	-0.0015556809
146	0x3e5a26e4	0.21303898
147	0x3dae2fbf	0.085052006
148	0x3e3e5cf1	0.18590142
149	0xbdd53510	-0.104105115
150	0xbe16fc48	-0.14744675
151	0x3cd6f30f	0.026238946
152	0x3da2971e	0.079389796
153	0xbda15bce	-0.078788385
154	0x3df5d7ad	0.120040275
155	0xbde58241	-0.112064846
156	0xbdfa2956	-0.122149155
157	0x3e12e13f	0.14343737
158	0x3c0cbf69	0.008590558
159	0x3e18ccf6	0.14921936
160	0xbdf5c693	-0.12000766
161	0x3c11a661	0.0088897655
162	0xbce1329f	-0.027489958
163	0x3d04dbba	0.03243611
164	0x3dc8752d	0.097879745
165	0x3e065a83	0.13120465
166	0x3e15488a	0.14578453
167	0x3dca9444	0.09891561
168	0x3e25d5fc	0.1619491
169	0x3c9eeae1	0.019399108
170	0x3cc53e4c	0.024077557
171	0xbd85384d	-0.06504879
172	0x3e2d48d1	0.16922309
173	0xbe2cae78	-0.1686343
174	0xbc340f3a	-0.010989958
175	0xbddb6b78	-0.107138574
176	0xbc2cbc73	-0.010542977
177	0xbd33ad9b	-0.043866735
178	0x3e6d1120	0.23151064
179	0x3e565933	0.20932464
180	0xbb8d8d8a	-0.0043198513
181	0x3d0ad816	0.03389748
182	0x3cf4eb7d	0.029897446
183	0xbc355f83	-0.011070135
184	0xbd8ff75c	-0.07029602
185	0xbc07b995	-0.008283992
186	0x3e6f92bc	0.23395818
187	0x3dcb9463	0.09940412
188	0x3e5f2685	0.21792038
189	0xbd9cd56a	-0.07657893
190	0x3d1f3c11	0.038875643
191	0x3da76443	0.0817342
192	0x3e10d5a5	0.14143999
193	0x3d298125	0.041382927
194	0x3da879ed	0.082263805
195	0x3cbf01f4	0.023316361
196	0x3e375590	0.17903733
197	0xbe0796a5	-0.1324106
198	0xbe438c79	-0.19096555
199	0x3dee30df	0.11630415
200	0xbe5a2b1d	-0.21305509
201	0x3cbb737e	0.02288222
202	0xbdaf7234	-0.085667044
203	0xbe1da06f	-0.15393232
204	0xbd9439e2	-0.07237603
205	0x3e0f927c	0.14020723
206	0x3e10629d	0.14100118
207	0x3e449847	0.19198714
208	0x3ca7a1e0	0.02046293
209	0xbcd302ba	-0.025758136
210	0x3dbe118c	0.092806906
211	0x3b992840	0.0046739876
212	0xbd80ecdf	-0.062951796
213	0x3be4934d	0.0069755674
214	0xbd87960e	-0.066204175
215	0x3d52458f	0.051335867
216	0x3d520431	0.05127353
217	0x3e29a33e	0.16566178
218	0x3c8a9ae0	0.016919553
219	0xbdf75bd1	-0.120780595
220	0xbdda1ad2	-0.10649647
221	0x3e16a2cd	0.14710541
222	0xbd855fd2	-0.06512417
223	0x3e1d5515	0.15364487
224	0xbe1eabd0	-0.15495229
225	0x3c1ef035	0.0097008245
226	0xbd6eafe1	-0.0582732
227	0xbcc5b902	-0.02413607
228	0xbd99afa8	-0.07504207
229	0x3da72ab3	0.08162441
230	0x3d0a9792	0.033835955
231	0xbb2a22f2	-0.002596077
232	0x3e250bff	0.16117857
233	0x3d2be5bc	0.04196714
234	0x3db4d80a	0.08830269
235	0xbd42f1e5	-0.04759397
236	0x3e019967	0.12656175
237	0x3d020d11	0.031750742
238	0x3d42b2ff	0.047533985
239	0x3ddbd9a3	0.1073487
240	0x3c0eaf12	0.008708732
241	0xbd303be8	-0.04302588
242	0x3e5fa18f	0.21838973
243	0x3e318513	0.1733592
244	0x3e027ced	0.12742968
245	0x3e5404f3	0.20705013
246	0x3e21cbb6	0.15800366
247	0xbcc60fb7	-0.024177415
248	0xbe2d395f	-0.16916417
249	0xbd5020c7	-0.05081251
250	0xbcf39b4c	-0.029737137
251	0xbdde4895	-0.10853688
252	0xbc8bcad8	-0.017064497
253	0x3d43bfaa	0.047790207
254	0xbe0bcfef	-0.13653539
255	0x3d61f254	0.055162743

lstm_skip/dense/BiasAdd/ReadVariableOp f4 [128]
0	0xbcf427ae	-0.029804077
1	0xbc5efc14	-0.013609905
2	0xbc361d29	-0.011115351
3	0x3ce3700f	0.027763395
4	0xb9e7472c	-0.0004411278
5	0xbcd6e88e	-0.026233938
6	0xbd022f28	-0.031783253
7	0xbd5e6c1a	-0.054302312
8	0x3bfe1d6d	0.0077549727
9	0x3c0667ce	0.00820346
10	0x3cb93d51	0.022612246
11	0x3d836bdc	0.06417057
12	0xbca242fa	-0.019807328
13	0xbbea36cb	-0.007147645
14	0xbadd7d2b	-0.0016898265
15	0xbd992f00	-0.07479668
16	0x3d59405e	0.0530399
17	0xbc9e8d97	-0.019354625
18	0xbb106d75	-0.0022037898
19	0x3c5bbf16	0.013412258
20	0xbcf2c1e9	-0.02963348
21	0x3c309858	0.010778509
22	0x3c89bbaf	0.016813127
23	0xbcdb9ccf	-0.02680817
24	0xbced45f7	-0.028964026
25	0xbce3ea58	-0.027821705
26	0xbd016350	-0.031588852
27	0x3d0353ad	0.03206222
28	0x3cf637dd	0.030055935
29	0x3d0a9da2	0.033841737
30	0xbb0e76dd	-0.0021738329
31	0xbd14ae99	-0.03629932
32	0x3c0c124d	0.008549285
33	0xbd3e0660	-0.0463928
34	0xbc12fdc5	-0.008971636
35	0xbcf75f46	-0.030196797
36	0x3cf025d5	0.029314915
37	0xbd32dc1e	-0.04366695
38	0x3c4a2323	0.012337479
39	0x3cb684f9	0.022280203
40	0xbcbb1474	-0.022836901
41	0xbd35572c	-0.044272587
42	0x3c131dc4	0.008979265
43	0x3cd73381	0.026269676
44	0x3beddd68	0.0072590597
45	0x3d095d81	0.033536438
46	0x3c5780c4	0.013153259
47	0x3d2ff2e9	0.042956267
48	0x3a1d7042	0.00060058024
49	0x3b19274b	0.0023369368
50	0xbce49d9b	-0.027907183
51	0x3c3930dd	0.011303154
52	0xbc0bb93d	-0.008528051
53	0x3ce24589	0.027621048
54	0x3c9d4ecf	0.019202618
55	0xb9857302	-0.00025453424
56	0x3bcfa85a	0.0063372077
57	0xbc83b027	-0.016075207
58	0xbd17240d	-0.036899615
59	0xbd162168	-0.036652952
60	0xbce3fbce	-0.02783003
61	0xbcf12ee9	-0.029441314
62	0x3d099236	0.033586703
63	0xbca3f850	-0.020015866
64	0xbd608a74	-0.05481954
65	0xbc528442	-0.0128489155
66	0xbd7ade8e	-0.0612474
67	0xbc6600ad	-0.014038247
68	0xbc857262	-0.016289894
69	0xbcd641ba	-0.026154388
70	0xbd01a8b2	-0.03165502
71	0xbd1ade0d	-0.03780942
72	0xbc8ae949	-0.016956942
73	0x3c0a7184	0.008449916
74	0xbc00b813	-0.007856387
75	0xbd91574d	-0.070967294
76	0x3d1d27ca	0.038368024
77	0x3cf151ef	0.029458014
78	0xbc321670	-0.010869607
79	0xbd32639d	-0.04355203
80	0xbd1c868e	-0.03821426
81	0xbd10cc6a	-0.035351194
82	0xbcba1da5	-0.022719214
83	0xbc907085	-0.017631778
84	0x3c86eafb	0.01646947
85	0xbd259eb0	-0.04043454
86	0x3be2a8ed	0.00691711
87	0x3cbad693	0.022807395
88	0x3c027c75	0.007964243
89	0x3c91449c	0.01773291
90	0xbd241ed4	-0.040068462
91	0xbcc0e814	-0.023548163
92	0xbbff1026	-0.0077839075
93	0xbc466ab2	-0.012110399
94	0xbb070cc1	-0.0020606967
95	0xbc3adc62	-0.011405082
96	0xbc6375ed	-0.013883096
97	0x3cfccaab	0.030858358
98	0xbd26ba29	-0.04070488
99	0x3cd88130	0.026428789
100	0x3d9c6490	0.07636368
101	0xbd00d65c	-0.03145443
102	0xbb86ce8a	-0.004113977
103	0x3c1dbcfd	0.009627578
104	0xbb91a4fe	-0.0044447174
105	0xbab616ca	-0.001389229
106	0x3c83104b	0.01599898
107	0x3c9ae2b0	0.018906921
108	0xba878ce0	-0.0010341667
109	0x3b397349	0.0028297475
110	0xbd712e24	-0.058881894
111	0xbacc24f1	-0.0015574974
112	0xbd149dc4	-0.03628327
113	0x3d9fd03e	0.07803391
114	0xbd2d44c3	-0.042301904
115	0xbbaa6b95	-0.005200813
116	0x3cee9de4	0.029128022
117	0xbd9859de	-0.07439016
118	0xbd61d3a6	-0.055133484
119	0xbcbd370b	-0.023097536
120	0x3c2bfcf9	0.010497325
121	0xbbd80bec	-0.006593218
122	0xbdb9e8d4	-0.090776116
123	0x3d65bbb0	0.056087196
124	0x38fd3f9f	0.000120758305
125	0x3ca4c4ee	0.020113435
126	0x3c583823	0.013196978
127	0x3d20541d	0.039142717

lstm_skip/dense_1/BiasAdd/ReadVariableOp f4 [144]
0	0xbcf449ef	-0.02982041
1	0xbcdbb3b4	-0.026819088
2	0x3bc2287f	0.0059252377
3	0xbc140cd8	-0.009036265
4	0x3cf1339f	0.02944356
5	0x3c8f2d7e	0.017477747
6	0xbbfef0db	-0.007780177
7	0xbcd361f2	-0.02580354
8	0xbc9e88ec	-0.019352399
9	0xbc430b7c	-0.011904594
10	0xbb9f53f9	-0.0048623052
11	0x3ba83be4	0.0051340926
12	0x3c8b5597	0.017008586
13	0x3ce6d9c6	0.028180014
14	0xbbfe27cf	-0.0077562104
15	0xbca352a1	-0.019936861
16	0xba554012	-0.00081348524
17	0xbc9184c0	-0.017763495
18	0x3c2d9da1	0.010596664
19	0x3bd52dcb	0.006505703
20	0x3cd5944d	0.026071692
21	0x3c8e9410	0.017404586
22	0xbc0ff50b	-0.00878645
23	0xbcbc894f	-0.023014693
24	0xbcbaf8ce	-0.022823717
25	0xbc9b69ab	-0.018971285
26	0x3c3f33b2	0.01167004
27	0x3a9c1fea	0.0011911367
28	0x3b421194	0.0029612528
29	0x3cd96fb4	0.026542522
30	0xbc2a4aa4	-0.010393772
31	0xbc90fd07	-0.017698778
32	0xbb0b8033	-0.002128613
33	0xbcbbe44a	-0.022936005
34	0x3cce7aae	0.025204983
35	0x3ae35d1d	0.0017346476
36	0x3bb65faf	0.0055656056
37	0x3c52662c	0.0128417425
38	0x39558176	0.00020361491
39	0xbc81b829	-0.015834885
40	0xbc43e9d9	-0.011957609
41	0xbc379e0e	-0.011207117
42	0x3c6d7621	0.014493496
43	0xbc3b0654	-0.011415083
44	0x3c90aa80	0.017659426
45	0x3ca43c9e	0.020048436
46	0xbb89a7bf	-0.004200905
47	0xbc76fbef	-0.015074714
48	0x3ae309a4	0.0017321599
49	0xbbffc42e	-0.007805369
50	0x3c9ca968	0.019123748
51	0x3bb3f897	0.0054922807
52	0x3ba94b3a	0.0051664384
53	0x3c898f71	0.016792031
54	0x3b928cbc	0.0044723433
55	0xbc51e5e6	-0.01281116
56	0xbc6efc84	-0.014586572
57	0xbb4faa71	-0.0031687284
58	0x3ad788b0	0.0016443934
59	0xbc3912c4	-0.011295978
60	0x3ab28101	0.0013618768
61	0x3cfce0cf	0.030868916
62	0x3b768841	0.0037617835
63	0xbc8e316a	-0.017357547
64	0xbb8879b9	-0.004164901
65	0xbb9802ee	-0.004639021
66	0x3b08d5f1	0.0020879472
67	0xbc3f1041	-0.01166159
68	0xbbc3f0f4	-0.0059796516
69	0x3cd57d6e	0.026060786
70	0xbbc56b59	-0.0060247597
71	0xbc6ca9f5	-0.014444818
72	0xbca4e946	-0.020130765
73	0xbc36cf02	-0.011157753
74	0x3c06a911	0.0082190195
75	0xbc90876f	-0.017642705
76	0x3b180fa9	0.0023202694
77	0x3ca348db	0.019932201
78	0xbaa30c28	-0.0012439536
79	0xbc079632	-0.008275555
80	0xbc498ea8	-0.012302078
81	0xbc0f1436	-0.008732846
82	0x3c3a6a27	0.011377848
83	0xbcb8b81c	-0.022548728
84	0x3beaad56	0.0071617765
85	0x3cbc58cc	0.02299156
86	0x3b574e65	0.0032853123
87	0xbc8e4bff	-0.017370222
88	0xbb018f1b	-0.0019769135
89	0xbc066933	-0.008203792
90	0x3a1ac455	0.00059038895
91	0xbcbad9eb	-0.02280899
92	0x3c13f9f7	0.009031764
93	0x3cb93d2f	0.022612182
94	0x3a3f8033	0.0007305175
95	0xbc639b01	-0.013891936
96	0x3b6ed220	0.0036441162
97	0xbb208a60	-0.002449654
98	0xbc10275c	-0.0087984465
99	0xbc9bd433	-0.019022083
100	0x3b891faf	0.004184685
101	0x3bb47b6a	0.005507876
102	0xb9a18c4a	-0.00030812836
103	0xbc9506a4	-0.018191643
104	0xbbc990a6	-0.0061512766
105	0xbb7afb6a	-0.0038296827
106	0x3be55d50	0.006999649
107	0xbcf2f242	-0.029656533
108	0xbc0d96e8	-0.008641936
109	0x3b8d7990	0.00431747
110	0xbb8379a9	-0.0040123058
111	0xbcc1d5fe	-0.02366161
112	0x3c115d92	0.008872407
113	0xbc819941	-0.015820147
114	0x3c979ae1	0.01850647
115	0xbcc39a1b	-0.023877194
116	0xba19fbac	-0.0005873989
117	0x3bb7f950	0.005614437
118	0xbc131ee2	-0.008979531
119	0xbcd31cf2	-0.025770638
120	0x3c739a4b	0.014868329
121	0xbc388eec	-0.011264544
122	0xbb66b746	-0.0035204454
123	0xbd033dbe	-0.032041304
124	0x3c000633	0.007813978
125	0xbac0f8e6	-0.0014722615
126	0x3bea0899	0.007142138
127	0xbcbe8178	-0.023255095
128	0x3b9c9a62	0.004779146
129	0xbca807d9	-0.020511555
130	0xbb93fcc1	-0.0045162146
131	0xbc9d7925	-0.019222805
132	0x395fcaac	0.00021342438
133	0x3a657f1e	0.00087545987
134	0xb8f97506	-0.000118950426
135	0xbc640a94	-0.013918538
136	0x3caf363a	0.021388162
137	0xbb51a8a6	-0.0031991391
138	0x3c2e6097	0.010643146
139	0xbcbffe84	-0.023436792
140	0xbbbfb2c7	-0.0058501693
141	0xbc0cded7	-0.008598051
142	0x3c0132dc	0.007885661
143	0xbc6584fb	-0.014008756

lstm_skip/dense/MatMul f4 [128, 208]
0	0x3a0b213f	0.0005307383
1	0xbe38acf7	-0.18034731
2	0x3e026aa2	0.1273599
3	0x3b65dd35	0.0035074477
4	0xbbfb61e1	-0.00767158
5	0xbc509266	-0.012730217
6	0x3dcd86be	0.10035466
7	0x3de29bb4	0.11064854
8	0x3ab3b953	0.0013711847
9	0x3d455eca	0.0481861
10	0x3ceb435d	0.028718645
11	0x3cf879ce	0.030331519
12	0x3db6392d	0.08897624
13	0xbe126e63	-0.14299922
14	0xbd32fb08	-0.043696433
15	0xbe88c2ac	-0.26711023
16	0x3df3649c	0.11884424
17	0x3d1aa739	0.037757132
18	0x3da3b426	0.07993345
19	0xbcbaf8cd	-0.022823716
20	0xbdc53223	-0.096287034
21	0x3d526516	0.051365934
22	0xbccb7b6d	-0.024839127
23	0xbe08f416	-0.13374361
24	0xbb083631	-0.0020784254
25	0x3b0eecfd	0.0021808736
26	0x3ced4a37	0.028966052
27	0xbddb8c33	-0.107201
28	0x3b66dc3e	0.003522649
29	0xbddf64f4	-0.10907927
30	0x3d13ba8c	0.036066577
31	0xbd597876	-0.053093396
32	0x3c561543	0.013066593
33	0x3d33e971	0.0439238
34	0xbd304b48	-0.043040544
35	0xbab4fb5b	-0.001380782
36	0xbcf8c6ac	-0.030368172
37	0xbdc0b2d8	-0.09409112
38	0xbdacaaac	-0.084309906
39	0x3d5b0f81	0.053481583
40	0xbd5555d7	-0.052083816
41	0x3db2d89d	0.08732722
42	0x3c70bfb3	0.014694142
43	0xbdea4352	-0.114386216
44	0xbda571bc	-0.08078334
45	0xbdb24be5	-0.08705882
46	0x3dbe20a4	0.092835695
47	0x3dc41dbd	0.095759846
48	0x3ddd19a7	0.107959084
49	0xbc4018bc	-0.011724647
50	0xbdb7ccb3	-0.0897459
51	0x3d331c92	0.04372842
52	0xbcd1f656	-0.025630157
53	0x3d8d3caf	0.0689634
54	0xbb7c0410	-0.003845457
55	0x3e06b3d9	0.13154544
56	0xbcec6e2a	-0.028861124
57	0xbc52ebdb	-0.012873615
58	0x3b1297f8	0.0022368412
59	0xbe03880b	-0.12844865
60	0x3a6c7a69	0.0009020926
61	0xbe04942a	-0.12947145
62	0x3db2dbaf	0.087333076
63	0x3c065112	0.00819804
64	0x3df9ebbe	0.122031674
65	0xbb20f640	-0.002456084
66	0xbe052620	-0.13002825
67	0x3d3f8ee9	0.04676715
68	0x3c18f1d8	0.009335004
69	0xbdb5b84c	-0.088730425
70	0xbde70a1e	-0.112812266
71	0xbbf98206	-0.007614377
72	0xbd2f1569	-0.042745028
73	0x3d1f3981	0.0388732
74	0xbe0156db	-0.12630789
75	0x3dadee7c	0.08492753
76	0xbdb782d8	-0.08960503
77	0x3c5e022b	0.013550322
78	0x3db85323	0.09000232
79	0x3d4c367e	0.049856655
80	0x3da25878	0.0792703
81	0x3d63edcd	0.055646706
82	0x3d9da05a	0.076966
83	0x3cc809ff	0.024418829
84	0xbde5d33e	-0.11221932
85	0x3dbab2e7	0.09116154
86	0x3de00aee	0.10939585
87	0x3dcaf291	0.09909547
88	0xbd339717	-0.043845262
89	0xbc92d98a	-0.017925996
90	0xbd92cf6a	-0.07168467
91	0xbdaea199	-0.08526916
92	0x3c551a24	0.013006721
93	0xbe2e027e	-0.16993138
94	0x3b6f7edc	0.003654412
95	0x3d9411b2	0.072299376
96	0x3d6fc0b9	0.058533404
97	0x3db5e5f8	0.08881754
98	0x3d809ebc	0.06280276
99	0x3dd1b678	0.10239881
100	0xbdc44239	-0.095829435
101	0x3cb98b6c	0.02264949
102	0x3c160bde	0.009158103
103	0xbcdf7bef	-0.027280776
104	0x3dbe2e93	0.09286227
105	0x3d1c9d30	0.038235843
106	0xbdb9bf39	-0.09069676
107	0x3d817168	0.06320459
108	0xbdfc2165	-0.12311057
109	0xbd0562e7	-0.032565024
110	0x3d922fb5	0.07138006
111	0x3d8ef781	0.069808014
112	0xbdad5252	-0.08462967
113	0x3ded9da8	0.11602336
114	0xbdcfbbe8	-0.10143262
115	0x3cefd9a1	0.029278578
116	0x3b26049f	0.0025332344
117	0xbe16a59f	-0.14711617
118	0x3d1c9836	0.038231097
119	0x3dc14bd8	0.09438294
120	0xbd805f0e	-0.0626813
121	0x3a45a99a	0.0007540226
122	0x3c6bd0b7	0.014393023
123	0x3e1f5cec	0.1556279
124	0xbcdaeedb	-0.026725223
125	0x3da3bc3c	0.07994887
126	0x3dda5833	0.10661354
127	0xbdcfbaa6	-0.10143022
128	0x3d9775da	0.07395525
129	0x3e01d21c	0.12677807
130	0x3d3c40d9	0.04596028
131	0x3d69fcd4	0.05712588
132	0x3cfdfcb1	0.031004282
133	0xbcbd9b1e	-0.023145255
134	0x3dc185a8	0.09449321
135	0xbc8cea41	-0.017201545
136	0x3c84b4e8	0.016199544
137	0xbd051b0c	-0.032496497
138	0x3db6c4f0	0.089242816
139	0xbd5423ec	-0.05179207
140	0x3c4b30f0	0.012401804
141	0x3c06e29a	0.008232737
142	0x3cbe8389	0.02325608
143	0xbdf1d240	-0.1180768
144	0x3dbdc1ce	0.09265481
145	0xbd36c3cb	-0.044620316
146	0xbdc4ae67	-0.09603577
147	0x3e0cfa9e	0.13767478
148	0xbe0cf563	-0.13765483
149	0x3d905636	0.070476934
150	0x3df7033a	0.12061162
151	0xbd6a141c	-0.057148084
152	0x3d03ba7e	0.032160275
153	0xbe36a42d	-0.17836066
154	0xbda891eb	-0.08230957
155	0xbd3556ea	-0.04427234
156	0xbe00f83a	-0.12594691
157	0x3ce4734f	0.027887015
158	0xbd0811d8	-0.033220142
159	0xbd599635	-0.053121764
160	0xbd7d7909	-0.061883006
161	0xbd0d7817	-0.034538355
162	0x3d90c8e3	0.07069566
163	0xbd262fbe	-0.040572874
164	0x3daddb5e	0.084891066
165	0x3d72f14f	0.05931216
166	0xbda864f8	-0.08222383
167	0xbdc9ca57	-0.098530464
168	0x3d92f33f	0.07175302
169	0xbdf7f872	-0.12107934
170	0xbdb33a64	-0.087513715
171	0xbd756188	-0.059907466
172	0xbc8c0213	-0.017090833
173	0x3d0a67f5	0.033790547
174	0x3a9138e2	0.0011079574
175	0xbcc59cc1	-0.024122598
176	0xbdbf3ba3	-0.09337547
177	0xbdc1bf13	-0.09460273
178	0xbd9e799c	-0.07738039
179	0xbd76c061	-0.06024206
180	0x3d699f23	0.05703653
181	0x3dbdcf0c	0.09268007
182	0xbd950a47	-0.07277351
183	0xbe1af130	-0.15131068
184	0xbdebc52b	-0.11512216
185	0x3dada567	0.084788136
186	0x3d81fcf5	0.06347076
187	0xbbe43e34	-0.006965423
188	0x3c2b9a17	0.01047375
189	0x3e227137	0.158635
190	0x3d02c36e	0.031924658
191	0xbe02cfa0	-0.12774515
192	0x3db2425d	0.08704064
193	0xbda2955b	-0.079386435
194	0xbe3a5f5c	-0.18200439
195	0x3d347095	0.04405268
196	0x3c2518f1	0.010076747
197	0x3e061b66	0.13096389
198	0xbd02e98d	-0.031961013
199	0xbe8d00af	-0.27539584
200	0x3df66c13	0.12032332
201	0xbe37e078	-0.17956722
202	0xbe664c78	-0.22490108
203	0xbdeb7d90	-0.114985585
204	0xbd43f29e	-0.0478388
205	0x3e6e9092	0.23297337
206	0x3c52642b	0.012841265
207	0xbea61420	-0.3243723
208	0xbd889c2a	-0.06670411
209	0xba67f06e	-0.00088477775
210	0xbda58b0b	-0.08083161
211	0x3da69033	0.081329726
212	0x3d595bd2	0.053066082
213	0x3e198498	0.14991987
214	0xbd7e3218	-0.062059492
215	0x3dcaf4de	0.09909986
216	0x3dcda965	0.10042075
217	0x3db7c8a5	0.08973817
218	0xbdd03635	-0.10166589
219	0x3d6bd511	0.057576243
220	0xbe08cfbc	-0.13360494
221	0x3d18d010	0.0373078
222	0xbd0287f8	-0.03186795
223	0xbd412ce4	-0.04716195
224	0xbc7d2de8	-0.015452839
225	0x3d2294aa	0.03969256
226	0x3db11b5c	0.086477965
227	0xbde4d6f4	-0.111738116
228	0x3e13d424	0.14436394
229	0x3cc2fef5	0.023803214
230	0x3d5368c6	0.05161359
231	0xbdd04734	-0.10169831
232	0x3d57bce4	0.052670375
233	0xbac7d547	-0.0015246057
234	0xbdaee201	-0.085392006
235	0x3cde3721	0.027125897
236	0xbd50fadb	-0.051020484
237	0x3dae1115	0.08499352
238	0xbdeba4cd	-0.11506043
239	0x3bdbf9a3	0.0067131086
240	0xbdbe6295	-0.09296147
241	0xbe12e817	-0.14346348
242	0x3dbcc0a7	0.09216433
243	0xbe217492	-0.15767124
244	0xbd879c75	-0.06621639
245	0x3af3b988	0.0018594721
246	0x3d993674	0.07481089
247	0xbda9680c	-0.082717985
248	0x3d2c288e	0.042030863
249	0xbdbf50e8	-0.093416035
250	0x3c533ed1	0.012893395
251	0xbd6bd9d3	-0.05758078
252	0x3dedac73	0.11605158
253	0x3da22f3b	0.07919165
254	0x3d92d2cd	0.07169113
255	0xbdaefb2c	-0.08544001

lstm_skip/dense_1/MatMul f4 [144, 128]
0	0xbce329b5	-0.027729848
1	0x3c9159ae	0.017742958
2	0xbb0b4a04	-0.0021253834
3	0xbcf499d8	-0.029858515
4	0x3cc94dc2	0.02457321
5	0x3b239863	0.0024962656
6	0x3c8d10de	0.017219957
7	0x3b16916c	0.0022974862
8	0xbd402306	-0.0469084
9	0x3bb714d8	0.0055872016
10	0x3d2f81d8	0.042848438
11	0xbc29a77c	-0.010354873
12	0xbd071560	-0.03297937
13	0xbc80819c	-0.015686803
14	0x3d322331	0.043490592
15	0xbc81e2b2	-0.015855167
16	0xbd4703e3	-0.04858769
17	0x3bd277c3	0.006422968
18	0xbd432d27	-0.047650483
19	0xbd5753a8	-0.052570015
20	0xbce67ccc	-0.02813568
21	0xbd231cfc	-0.039822564
22	0xbc60aee9	-0.013713577
23	0xbd205e2b	-0.039152306
24	0x3d5abf65	0.053405184
25	0xbcab706a	-0.020927627
26	0x3d756548	0.059911042
27	0x3d623b48	0.055232316
28	0x3d20d885	0.03926899
29	0x3cdf3664	0.027247615
30	0x3d70e882	0.058815487
31	0x39f37e10	0.00046442496
32	0x3b1e538c	0.0024158685
33	0x3d87a25b	0.06622764
34	0x3d1364e6	0.035984896
35	0x3cc301d5	0.023804585
36	0xbd33c317	-0.043887224
37	0xbc30f277	-0.010799996
38	0xbd8fd611	-0.07023252
39	0x3c9e59fc	0.019330017
40	0x3db0fd3a	0.08642049
41	0x3caefde6	0.021361303
42	0xbcce5804	-0.025188453
43	0x3d71be6f	0.059019502
44	0x3ce563ea	0.028001744
45	0xbc757946	-0.014982527
46	0xbd165e69	-0.03671113
47	0xbc9b8584	-0.018984564
48	0xbd910f71	-0.07083023
49	0x3b275cab	0.0025537412
50	0xbccb80d1	-0.024841698
51	0xbd43403e	-0.047668688
52	0xbd85ba6a	-0.06529696
53	0xbd41ce55	-0.047315914
54	0x3b823a34	0.0039742235
55	0xbd833e17	-0.06408327
56	0xbc0b9f3c	-0.008521851
57	0x3c5c877f	0.013460039
58	0x3cfc322b	0.03078564
59	0xbc5bf7eb	-0.0134258075
60	0x3a4398ca	0.0007461427
61	0x3d815f3d	0.063169934
62	0xbd485a73	-0.048914384
63	0x3cc3788f	0.023861198
64	0xbcc49fe7	-0.024002029
65	0x3cde030c	0.027101062
66	0xbd170765	-0.036872286
67	0x3cfb06a8	0.030642822
68	0x3d3986f1	0.045294706
69	0xbcb01e12	-0.021498714
70	0xbd1403cd	-0.036136437
71	0xbd2c63e9	-0.04208747
72	0x3c7ae561	0.015313477
73	0xbd2690c3	-0.0406654
74	0xbd02ccb5	-0.031933505
75	0xbd3c1b96	-0.045924746
76	0x3b2f3638	0.0026735198
77	0xbca7ddd9	-0.020491527
78	0x3c6ac8fe	0.014330147
79	0xbc81569c	-0.015788369
80	0xbd3d6d64	-0.0462469
81	0x3ca0650d	0.019579435
82	0x3c00a772	0.007852422
83	0x3cb13fea	0.021636922
84	0xbd2ba75d	-0.041907657
85	0x3c5258e7	0.012838579
86	0x3beb0b71	0.007172995
87	0x3d2a8020	0.041626096
88	0xbd04eb1e	-0.032450788
89	0x3d550ddd	0.052015174
90	0x3cb05730	0.02152595
91	0xbd492038	-0.04910299
92	0x3d272b8a	0.040813006
93	0x3d9616d0	0.0732857
94	0x3cfd71d4	0.030938067
95	0x3afc237a	0.0019236647
96	0xbc919a79	-0.017773854
97	0xbd40e80a	-0.04709629
98	0x3d11411a	0.035462476
99	0x3d7d9c59	0.061916683
100	0xbd098e9a	-0.03358326
101	0x3ca4932f	0.020089714
102	0x3d35d38a	0.044391192
103	0xbcefdd30	-0.029280275
104	0xbd0745af	-0.03302544
105	0xbce926a4	-0.028460808
106	0x3daabb8b	0.08336552
107	0x3b83c09c	0.0040207636
108	0xbc410b2a	-0.011782447
109	0x3d186bfa	0.03721235
110	0xbc350222	-0.011047872
111	0x3d4197df	0.047263976
112	0xbd0292b3	-0.031878185
113	0xbd00b19a	-0.031419374
114	0x3b26a3a2	0.0025427123
115	0x3c586ebb	0.013209994
116	0xbc40fa30	-0.011778399
117	0xbbb3b886	-0.0054846434
118	0xbd38d160	-0.04512155
119	0xbc8f3be5	-0.017484615
120	0x3b5de819	0.0033860265
121	0x3b5a35e7	0.0033296288
122	0x3c6aafdb	0.014324154
123	0xbdd1b9c4	-0.1024051
124	0x3d2d40c4	0.042298093
125	0x3c8364f6	0.016039353
126	0x3c9098c0	0.017650962
127	0x3d911da4	0.070857316
128	0xbcad891a	-0.02118354
129	0xbc794cfd	-0.015216109
130	0xbba3fc93	-0.0050044744
131	0x3d2d552a	0.042317547
132	0xbd4016d7	-0.04689678
133	0x3da6be06	0.08141713
134	0x3c5fa04f	0.01364906
135	0x3c77bbed	0.015120489
136	0xbd66293d	-0.05619167
137	0xbc0fbdf0	-0.008773312
138	0xbbd98ae8	-0.0066388734
139	0x3c824e25	0.015906403
140	0xbc4a7a78	-0.0123583
141	0xbc9673f7	-0.018365843
142	0xbd06f1c1	-0.0329454
143	0x3b7e9c18	0.0038850363
144	0x3c8a2d27	0.016867233
145	0x3d10cfb9	0.03535435
146	0x3cc04ee7	0.023475124
147	0xbd102024	-0.0351869
148	0x3c023449	0.007947036
149	0x3bece999	0.0072299954
150	0xbbe54a31	-0.0069973697
151	0xbcecd256	-0.02890889
152	0xbc38d383	-0.011280897
153	0xbcf65251	-0.030068548
154	0x3d521823	0.05129255
155	0xbc0c1961	-0.008550973
156	0xbd732bbc	-0.05936788
157	0x3d0599a1	0.032617215
158	0x3bf00725	0.0073250704
159	0xbc8b9b0e	-0.01704171
160	0xbd1e814f	-0.038697537
161	0xbbb42aca	-0.005498265
162	0x3b502c1e	0.0031764577
163	0xbceef85e	-0.029171165
164	0x3d14305a	0.036178924
165	0x3cef5669	0.029216008
166	0xbcbb18c1	-0.022838952
167	0x3c1cc8df	0.009569376
168	0xbd4b82ab	-0.04968516
169	0x3c2df514	0.010617513
170	0xbcff1ef0	-0.031142682
171	0xbd37efdb	-0.04490648
172	0x3d177fb9	0.03698704
173	0xbd9acc26	-0.075584695
174	0xbcee05c1	-0.029055478
175	0xbb678359	-0.0035326092
176	0xbdb225f9	-0.08698649
177	0xbc99b5cd	-0.018763447
178	0xbd0a7be1	-0.033809546
179	0x3c590ea0	0.013248116
180	0x3d2424df	0.040074226
181	0xbd201db2	-0.03909082
182	0x3d717698	0.05895099
183	0x3c33fcce	0.010985566
184	0xbcb46227	-0.022019459
185	0xbd02ca12	-0.03193099
186	0xbd1fd490	-0.039021075
187	0xbb0f56b5	-0.002187175
188	0xbbe4a346	-0.0069774715
189	0x3d02b44a	0.03191022
190	0xbad83521	-0.0016495326
191	0x3bbd8b79	0.0057844487
192	0x3d3c6244	0.04599215
193	0xbb18cbcc	-0.0023314832
194	0x3ba9e724	0.005185025
195	0xbd5f303d	-0.054489363
196	0xbc93babe	-0.018033382
197	0x3cd367cb	0.025806328
198	0x3c8a873f	0.016910193
199	0x3db54078	0.08850187
200	0xbcdbef62	-0.026847545
201	0x3d058959	0.032601688
202	0x3dedd2a0	0.11612439
203	0xbbd2b536	-0.0064302934
204	0xbccff91f	-0.025387345
205	0xbcd2b43f	-0.025720714
206	0xbdbd2900	-0.09236336
207	0xbcde0660	-0.02710265
208	0x3d7a5df5	0.06112476
209	0x3d1ea9e4	0.03873624
210	0x3dc99c0b	0.09844216
211	0x3d4c65cb	0.049901765
212	0x3d3fbd0b	0.046811145
213	0x3d3d90c1	0.046280626
214	0xbc8290fb	-0.015938273
215	0xbcc44dc4	-0.023962863
216	0x3cc6b88a	0.024257917
217	0xbc802987	-0.015644802
218	0xbd0d6237	-0.034517493
219	0x3d46845a	0.048466064
220	0xbd054f58	-0.03254637
221	0xbbf478b1	-0.0074606766
222	0x3ba509ef	0.0050365846
223	0xba8ec129	-0.0010891306
224	0x3d2ea83e	0.042640917
225	0x3d11b5ab	0.035573643
226	0x3cdb9603	0.02680493
227	0xbd5cacef	-0.05387586
228	0xbd0e2fad	-0.034713436
229	0x3c8b48c1	0.017002465
230	0x3d82aa12	0.063800946
231	0xbd7e8e98	-0.062147707
232	0xbd6d4895	-0.057930548
233	0x3bd7b52b	0.006582876
234	0x3d971079	0.07376189
235	0x3cc44a2c	0.02396115
236	0xbd84a61b	-0.064769946
237	0xbdaa9700	-0.08329582
238	0x3d14b966	0.036309622
239	0x3cfa8ef1	0.030585738
240	0x3cf1c17a	0.029511202
241	0xbd6f2675	-0.058386285
242	0x3d4e47ad	0.050361324
243	0x3cc0e17a	0.023545016
244	0x3aef0c6b	0.0018237954
245	0x3db073d6	0.08615844
246	0x3c4d115f	0.012516349
247	0x3c775085	0.015094881
248	0xbd6aca49	-0.05732182
249	0x3b6eacc3	0.0036418892
250	0x3d04c7c8	0.03241709
251	0xbcca6d8b	-0.024710437
252	0xbdc51d71	-0.09624756
253	0xbd1327dd	-0.03592669
254	0xbca83366	-0.020532321
255	0xbcec285d	-0.02882784

lstm_skip/lstm/while/lstm_cell/BiasAdd/ReadVariableOp f4 [128]
0	0x3d46fe3b	0.048582297
1	0x3d871019	0.06594867
2	0x3c265d03	0.010154012
3	0x3dc57121	0.09640718
4	0x3d1caa1b	0.038248163
5	0x3c845fb8	0.016158924
6	0x3d81988e	0.063279256
7	0x3d0997cc	0.03359203
8	0x3d70bcec	0.05877392
9	0x3d9b3a24	0.07579449
10	0xbc3aab9b	-0.011393453
11	0x3d5b05cf	0.053472336
12	0x3d8d19f9	0.068897195
13	0x3d77e7cb	0.06052379
14	0x3d22d784	0.039756313
15	0x3d3024be	0.04300379
16	0x3d62f33b	0.055407744
17	0x3d7e8605	0.06213953
18	0x3d050318	0.032473654
19	0x3c737243	0.014858785
20	0x3d849a72	0.064747706
21	0x3b62a60f	0.0034583842
22	0x3d5adec1	0.05343509
23	0x3d582284	0.05276729
24	0x3d77df65	0.06051578
25	0x3c65f1f3	0.014034736
26	0xbc8a723f	-0.01690018
27	0xbb3f08aa	-0.0029149451
28	0x3d0d1610	0.03444487
29	0x3b8197bc	0.0039548557
30	0x3deab2f5	0.114599146
31	0x3d85fbf9	0.065422006
32	0x3f8504e7	1.0392121
33	0x3f85a5a0	1.044117
34	0x3f796462	0.97418797
35	0x3f88e7ef	1.069578
36	0x3f883e6c	1.064405
37	0x3f8199a2	1.012501
38	0x3f8c8162	1.0976985
39	0x3f7f188f	0.9964685
40	0x3f85d35a	1.0455124
41	0x3f8cdb03	1.1004337
42	0x3f7cebc4	0.9879725
43	0x3f7aecd9	0.9801765
44	0x3f87ba24	1.0603681
45	0x3f83edb1	1.0306913
46	0x3f8185b6	1.011893
47	0x3f88cafd	1.0686947
48	0x3f7ae4ce	0.9800538
49	0x3f822fd0	1.0170841
50	0x3f848822	1.0354044
51	0x3f809006	1.0043952
52	0x3f85d6db	1.0456194
53	0x3f8398b9	1.0280982
54	0x3f88eecd	1.0697876
55	0x3f843e58	1.0331526
56	0x3f832a88	1.0247355
57	0x3f7f3d01	0.9970246
58	0x3f7dd1bd	0.9914816
59	0x3f7fb582	0.99886334
60	0x3f8395c9	1.0280086
61	0x3f7df94f	0.9920854
62	0x3f8c833c	1.097755
63	0x3f818c7a	1.0120995
64	0x3adffd8f	0.0017089116
65	0x3d4547a7	0.048164036
66	0xbd78a213	-0.06070144
67	0x3cba22f9	0.022721754
68	0x3d31c885	0.04340412
69	0x3cb4f430	0.022089094
70	0x3d974c7f	0.07387637
71	0x3c5d8036	0.013519337
72	0x3d8876a4	0.06663254
73	0xbbb20200	-0.0054323673
74	0xbc0de5f7	-0.008660785
75	0x3cdb9417	0.026804013
76	0x3c8654ef	0.016397921
77	0x3d94caeb	0.07265266
78	0x3d55cac1	0.052195314
79	0x3aa80059	0.0012817486
80	0x3c2db4d8	0.010602199
81	0x3d4e486a	0.05036203
82	0x3d04a53b	0.03238414
83	0x3ce25560	0.0276286
84	0x3d25ab34	0.040446475
85	0xbd586e08	-0.05283931
86	0xbbf509bc	-0.007477967
87	0x3d376fa2	0.044784196
88	0x3d4aad08	0.04948142
89	0x3c078614	0.008271713
90	0xbd0d6afe	-0.034525864
91	0xbc611127	-0.013737
92	0x3d28369b	0.0410677
93	0x3c4cff09	0.012511977
94	0xbb0c26c8	-0.002138542
95	0x3d3ddd42	0.046353586
96	0x3d5f31ce	0.054490857
97	0x3d70fa4a	0.058832444
98	0x3c56b18b	0.013103853
99	0x3dced7eb	0.10099777
100	0x3d47acc5	0.04874875
101	0x3c8825cd	0.016619587
102	0x3d93632a	0.071966484
103	0x3cbd0008	0.023071304
104	0x3ce4a177	0.027909024
105	0x3da860e3	0.08221605
106	0xbb05f446	-0.0020439788
107	0x3d094290	0.033510745
108	0x3e00c521	0.12575199
109	0x3d416877	0.047218766
110	0x3d0ef2ba	0.03489945
111	0x3d6b7eeb	0.057494085
112	0x3d26bdf3	0.040708493
113	0x3c8efd58	0.017454788
114	0x3c5b7135	0.01339369
115	0x3d02adf1	0.031904165
116	0x3d9361cc	0.07196388
117	0x3c6192bf	0.013767897
118	0x3d867b8d	0.06566534
119	0x3d4f1be9	0.050563727
120	0x3d2d3ee6	0.042296313
121	0x3cac1d5b	0.021010092
122	0xbc879760	-0.016551673
123	0xbb1157ac	-0.00221775
124	0x3d49ff01	0.049315456
125	0x3cde0387	0.027101291
126	0x3de09f1f	0.1096785
127	0x3d24293f	0.040078398

lstm_skip/lstm/while/lstm_cell/MatMul_11 f4 [128, 32]
0	0xbd88ed22	-0.066858545
1	0xbc64741b	-0.013943697
2	0x3db4329e	0.08798717
3	0x3d8dad30	0.069177985
4	0x3d4cf694	0.050039843
5	0x3db75ce5	0.08953265
6	0xbd0a4e93	-0.03376634
7	0xbe0fcb88	-0.14042485
8	0x3d7d3d42	0.061825998
9	0xbc4495a2	-0.011998566
10	0x3e828357	0.2549083
11	0x3e2a16c1	0.16610242
12	0xbd965f47	-0.073423915
13	0x3e15daf7	0.1463431
14	0xbb2a09c2	-0.0025945758
15	0xbd1c7f48	-0.038207322
16	0xbe103537	-0.140828
17	0x3ddf9c8d	0.109185316
18	0xbe7407ec	-0.23831147
19	0x3e0be856	0.13662848
20	0x3d29b858	0.04143557
21	0xb90c992d	-0.00013408503
22	0xbd2c58a8	-0.042076737
23	0xbbb43c41	-0.005500347
24	0x3d9b2fbb	0.07577463
25	0x3e6affda	0.22949162
26	0x3d18b2a8	0.037279755
27	0x3dc75d27	0.09734564
28	0xba62aa09	-0.0008646553
29	0x3dfb1d25	0.12261418
30	0x3c809c08	0.015699401
31	0x3ce351e2	0.027749006
32	0x3d5c6867	0.053810503
33	0xbc62d98b	-0.013845812
34	0xbd87688d	-0.06611738
35	0x3e4bd52d	0.19905539
36	0xbe21c502	-0.15797809
37	0xbce6d5bc	-0.028178088
38	0xbd11e3ca	-0.035617627
39	0xbe07ebd8	-0.13273561
40	0xbca27e83	-0.019835716
41	0x3dfae78d	0.12251196
42	0x3d427624	0.04747595
43	0x3c3b1a51	0.011419849
44	0xbc3c314e	-0.0114863645
45	0x3d0bc78e	0.034125857
46	0x3e14b761	0.14523079
47	0x3b4fe7f3	0.0031723946
48	0x3e2a28dd	0.1661715
49	0x3d978271	0.073979266
50	0x3db46166	0.0880764
51	0x3d7c9c2a	0.061672367
52	0x3d4bc2b4	0.04974623
53	0xbe2ead44	-0.17058283
54	0x39bf993a	0.00036544522
55	0x3c5b5fcb	0.013389538
56	0x3d80c403	0.06287386
57	0xbd01a19f	-0.031648275
58	0xbdac6635	-0.08417932
59	0x3db3a7a2	0.08772208
60	0xbe093ddf	-0.13402508
61	0x3dfc279d	0.12312243
62	0x3d95f051	0.07321227
63	0x3dfbaf58	0.122893035
64	0x3e000d71	0.12505127
65	0x3de6cfe5	0.112701215
66	0x3d1306d9	0.035895202
67	0x3d904cc5	0.070458926
68	0xbe05c2d8	-0.13062608
69	0xbc69d01f	-0.014270811
70	0x3c66cae4	0.014086459
71	0x3e11adfe	0.14226529
72	0x3e1eb6dd	0.15499444
73	0xbe1a38f8	-0.15060794
74	0xbcc1a015	-0.023635903
75	0xbd366542	-0.04453016
76	0x3e1568dd	0.14590783
77	0x3db7c3a7	0.089728646
78	0x3b9d5789	0.004801695
79	0xbda4a3d4	-0.0803906
80	0x3dcb728d	0.09933958
81	0xbcc8babc	-0.024503104
82	0x3d9b6d10	0.075891614
83	0x3d8b7d25	0.06810979
84	0xbd3251c3	-0.043535005
85	0xbc240941	-0.010011972
86	0xbe12cd2b	-0.14336078
87	0x3d964601	0.07337571
88	0x3a02218a	0.0004964104
89	0x3c968720	0.01837498
90	0xbdc3784f	-0.095444314
91	0xbd396d31	-0.04527015
92	0x3e1be715	0.1522487
93	0x3dcf56f6	0.10124008
94	0x3e088a4b	0.13334005
95	0xbd0c6516	-0.03427609
96	0x3cdc797e	0.0269134
97	0x3e78f402	0.24311832
98	0xbdd95b5d	-0.10613129
99	0xbcaddcd9	-0.021223472
100	0xba8504e9	-0.0010148558
101	0x3de1530a	0.110021666
102	0xbd27e98c	-0.040994212
103	0xbd7e2358	-0.062045425
104	0x3e051193	0.12994985
105	0x3e364943	0.17801385
106	0x3e02a8c4	0.12759691
107	0xbbaea412	-0.0053296173
108	0x3cd3cac8	0.02585353
109	0xbd323788	-0.04350999
110	0x3d726597	0.059178915
111	0xbd5c6977	-0.053811517
112	0x3e3c975a	0.18417111
113	0x3dc4ee99	0.096158214
114	0x3e325352	0.17414597
115	0x3dee9ad8	0.11650628
116	0xbe3e6373	-0.18592624
117	0xbc21b7d3	-0.009870487
118	0x3d754e36	0.05988904
119	0xbc163e79	-0.009170168
120	0x3d43eb47	0.0478318
121	0xbe6eb5a8	-0.23311484
122	0xbd83b9f3	-0.064319514
123	0xbd5200f2	-0.051270433
124	0x3e6ab6e0	0.22921324
125	0x3dc0d206	0.09415059
126	0xbe011d70	-0.12608886
127	0x3daec503	0.08533671
128	0xbd479aea	-0.048731722
129	0xbd4b7d91	-0.049680296
130	0xbdf9243d	-0.12165115
131	0x3be86ef2	0.007093304
132	0x3dd91338	0.10599369
133	0xbd843600	-0.06455612
134	0x3dd1c7a7	0.10243159
135	0x3c8ca34a	0.017167706
136	0xbe025a33	-0.12729721
137	0xbdaa41f7	-0.08313363
138	0xbcc255d9	-0.023722576
139	0xbdc510bc	-0.096223325
140	0xbc3f4ccb	-0.011676024
141	0xbcb2c390	-0.021821767
142	0xbcd86571	-0.026415559
143	0x3e0e644a	0.13905445
144	0xbe2d0bb1	-0.16898991
145	0x3d991daf	0.07476365
146	0xbd6af3c7	-0.05736139
147	0xbd6ea603	-0.05826379
148	0xbc5a9b92	-0.013342755
149	0xbe29e4d6	-0.165912
150	0x3e99cf27	0.30040857
151	0x3d5b5511	0.053547923
152	0xbe38bb32	-0.1804016
153	0x3d1d1b8a	0.03835634
154	0xbd64d859	-0.055870388
155	0x3e42d536	0.19026646
156	0xbd0f97a7	-0.035056736
157	0xbd205b99	-0.039149854
158	0xbd8b2040	-0.067932606
159	0xbdb19d90	-0.08672631
160	0x3e3a40f6	0.18188843
161	0x3e36ff34	0.1787079
162	0xbd30055f	-0.042973872
163	0x3e0c6bb2	0.13712958
164	0xbd7dbc70	-0.061947286
165	0x3b94b8c7	0.0045386287
166	0x3bf1a600	0.007374525
167	0x3d7e10d7	0.06202778
168	0x3e196a5b	0.14981978
169	0x3e307453	0.17231874
170	0xbdd32839	-0.10310406
171	0xbc7cf0e8	-0.015438296
172	0x3d3a44c4	0.045475736
173	0x3d5b071e	0.053473584
174	0xbd64ea0a	-0.05588726
175	0x3cbf3460	0.023340404
176	0xbc69fe7c	-0.014281865
177	0x3dfdffc8	0.12402302
178	0xbda59c8f	-0.08086502
179	0x3d9c7ba8	0.07640773
180	0xbcdef57c	-0.027216665
181	0xbd9caeb0	-0.076505065
182	0xbdb53a27	-0.08848982
183	0x3dafc1ef	0.08581912
184	0x3d88f809	0.06687934
185	0xbdba5fd9	-0.09100313
186	0x3ddb1a6b	0.10698398
187	0x3bb5769a	0.00553782
188	0x3c546802	0.0129642505
189	0xbb9816f7	-0.0046414095
190	0xbcdbde55	-0.026839415
191	0x3d236b63	0.039897334
192	0xbcea499e	-0.028599557
193	0x3dfd6d9c	0.12374422
194	0x3c786349	0.01516039
195	0xbdc99fd9	-0.09844942
196	0xba0993d3	-0.0005248163
197	0xbc99e4e2	-0.018785898
198	0xbd81a949	-0.06331117
199	0x3e0bf61f	0.13668106
200	0xbd9de0d5	-0.07708899
201	0x3d6e4a5b	0.05817638
202	0x3d668453	0.056278538
203	0x3d5cf0a8	0.053940445
204	0xbe23738e	-0.1596205
205	0xbc31ecc8	-0.010859676
206	0x3c805797	0.015666766
207	0x3deb72f9	0.11496539
208	0x3c8c2621	0.017108025
209	0x3d4cd4b2	0.05000753
210	0xbd9d6c13	-0.07686629
211	0xbd7e8341	-0.062136892
212	0x3d8d5fdf	0.069030516
213	0x3dc62f6f	0.09677016
214	0x3d73bef7	0.05950829
215	0x3daea888	0.085282385
216	0x3d2acfa7	0.04170194
217	0xbca16d72	-0.019705508
218	0xbe053e2f	-0.13012002
219	0x3e46a968	0.19400561
220	0xbd15ce74	-0.036573842
221	0xbe0d941a	-0.13826028
222	0x3e17dcb4	0.14830285
223	0xbe09e0bc	-0.13464636
224	0x3daa6c2c	0.083214134
225	0x3dca5fd0	0.09881556
226	0x3dc567b3	0.0963892
227	0x3d6d014b	0.05786256
228	0x3ca54ec0	0.020179152
229	0x3de69539	0.11258931
230	0x3d90dc27	0.07073241
231	0x3b0ab9b3	0.0021167814
232	0x3d025425	0.031818528
233	0xbd553989	-0.052056823
234	0x3d0893dd	0.03334414
235	0x3dcb6c7d	0.09932802
236	0xbd556112	-0.052094527
237	0x3cef0727	0.029178215
238	0xbdd6f31f	-0.104955904
239	0x3d4b4979	0.049630616
240	0xbd61fdfa	-0.05517385
241	0x3e040666	0.12893066
242	0x3d5a0365	0.053225894
243	0x3cb9a2e2	0.022660676
244	0xbd8a90c4	-0.06765893
245	0xbe059821	-0.13046314
246	0x3cf1ca29	0.029515343
247	0x3e069a53	0.13144808
248	0x3daaecf9	0.0834598
249	0xbd93eafa	-0.072225526
250	0x3cf25afd	0.029584402
251	0x3c9fa5c5	0.019488225
252	0x3d9e40be	0.07727192
253	0x3ba00251	0.0048830886
254	0x3d074d09	0.03303245
255	0x3df85fe0	0.12127662
